[convolutional]
filters=96
size=11
stride=4
pad=0
activation=relu

[maxpool]
size=3
stride=2
padding=0

[convolutional]
filters=256
size=5
stride=1
pad=1
activation=relu

[maxpool]
size=3
stride=2
padding=0

[convolutional]
filters=384
size=3
stride=1
pad=1
activation=relu

[convolutional]
filters=384
size=3
stride=1
pad=1
activation=relu

[convolutional]
filters=256
size=3
stride=1
pad=1
activation=relu

[maxpool]
size=3
stride=2
padding=0

[connected]
output=4096
activation=relu

[dropout]
probability=.5

[connected]
output=4096
activation=relu

[dropout]
probability=.5

[connected]
output=1000
activation=linear

[softmax]
groups=1